Capstone Analisis Sentimen/code/sentiment_analysis_model.tflite (tflite, 556452 bytes, 7 tensors)

sequential/dense_1/BiasAdd/ReadVariableOp f4 [64]
000000 20 3d 93 3d 00 88 45 3c a1 95 43 3d 7c 7c 31 3d
       0.07189393 0.012056351 0.04775012 0.04333161
000010 6b d5 14 bc ab 25 82 3d 72 f8 88 3d e2 18 52 3d
       -0.009084086 0.06354841 0.06688012 0.05129326
000020 8c cf 51 3d d7 1d 66 3d bf 7d f2 bc 1a f9 08 bc
       0.051223323 0.0561808 -0.029600976 -0.008360172
000030 6d c3 47 3d 6e 49 0d 3d 09 45 fe 3c 3b 1e 01 3d
       0.048770357 0.034493856 0.031038778 0.03152297
000040 fe a6 33 3d f3 22 33 3d 97 07 2f 3b 9d 94 0b bc
       0.043860428 0.043734502 0.0026707405 -0.008519319
000050 77 8e d6 3c 5a 3d 72 3d c4 f1 11 3d b2 e1 55 3d
       0.02619098 0.05914054 0.035630956 0.052217193
000060 b2 11 bb 3c fd f4 ad bb b2 70 2c 3d 44 c7 31 3d
       0.022835586 -0.005308746 0.042099662 0.043402925
000070 32 f5 cc bc 54 24 21 3d 4e 63 05 3d f1 6f 95 bb
       -0.025019262 0.039341286 0.032565407 -0.0045604636
000080 35 ca 13 3d c8 2e 2c 3d 2a 44 56 3d b0 5c cf 3c
       0.03608151 0.0420368 0.0523111 0.025312752
000090 46 8f 1a 3d 71 ec 81 3d 65 56 0e 3d 57 37 c7 3c
       0.037734292 0.06343926 0.03475036 0.02431838
0000a0 0e 7e 0b 3d 74 ec de bc 5b 88 10 bc e3 06 fc 3c
       0.034055762 -0.027212359 -0.008821572 0.030765003
0000b0 39 cc 43 3d 6d 89 ba 3c 33 2e 31 3d 53 ba ab 3c
       0.047802184 0.022770608 0.04325695 0.02096287
0000c0 6a 7f 9c bb 5c a9 58 3d cd 1c 65 3b 1e c0 44 3d
       -0.004775931 0.05289589 0.0034959794 0.04803478
0000d0 05 9f 3e 3d f0 85 44 3d 7e ad 64 3c 7e f8 25 3d
       0.04653837 0.047979295 0.013957379 0.040520184
0000e0 70 3e 41 3d 4b 8b 37 3d 94 aa 43 bc d2 68 a2 bb
       0.047178686 0.044810575 -0.011942524 -0.004956343
0000f0 80 1d 04 3d a0 c5 c7 3b 12 e1 f9 3c 0b c1 f2 3c
       0.032254696 0.006096557 0.03050283 0.029633066

sequential/dense_2/BiasAdd/ReadVariableOp f4 [32]
000000 8b a9 68 3d 85 f0 b4 3d a7 1e b8 3d 30 a2 98 3d
       0.056802314 0.08834938 0.089902215 0.0745281
000010 22 e7 5d 3d 4c 41 76 3d 41 52 00 3d 96 47 08 3d
       0.054175504 0.060120866 0.031328443 0.033271395
000020 18 cf 60 bd e8 da 3a 3d 3b 14 e6 3c df 00 86 3d
       -0.054885 0.04561892 0.028085819 0.06543135
000030 ba c7 6d 3d c8 a2 6f 3d 7b 05 34 3d 66 ad 5c 3d
       0.058051802 0.05850485 0.04395054 0.053876303
000040 29 2d 96 3d db 81 87 3d af d7 14 3d 2b cf 08 3d
       0.07332832 0.06616565 0.036338504 0.033400696
000050 5d 6e 4b 3c 89 22 37 3d d3 8a b4 3c 07 bd 89 3d
       0.012416449 0.04471067 0.022038853 0.06725507
000060 13 70 46 3d b9 75 97 3d cb eb 39 3d a6 12 0c 3b
       0.048446726 0.07395501 0.045390885 0.002137342
000070 d6 29 e7 3c 00 ff e6 3a 60 b7 14 3d 6b d1 88 3d
       0.028218191 0.0017623603 0.036307693 0.06680568

sequential/dense/BiasAdd/ReadVariableOp f4 [128]
000000 47 c3 c4 3c 3b 70 c9 3c cd c1 18 3d 30 34 48 3d
       0.024018897 0.024589648 0.037294198 0.048877895
000010 42 a9 28 3d 0f 24 1e 3d 68 74 1c 3d 04 ea f6 bb
       0.04117704 0.038608607 0.03819695 -0.007535221
000020 50 b4 fc 3a 2d 2b 4d 3d fa 68 40 3d a9 14 8f 3b
       0.0019279812 0.050090004 0.046975113 0.0043664766
000030 b4 9b 2f 3d 33 c7 56 3c d9 36 0b bd 6e fe c0 3c
       0.0428731 0.013109016 -0.033987854 0.023558822
000040 e6 f9 e3 b9 32 eb 78 3d 9c 1e 9c 3c 14 cf 1b 3d
       -0.00043483003 0.060771175 0.019057564 0.038039282
000050 d8 9f 14 3d 69 53 e1 3c 67 a4 e6 3c 4d da 6e bc
       0.03628525 0.027505593 0.028154565 -0.014578414
000060 4e 7e 38 3d 65 ad 02 3c eb bc 0e 3d 0a 6c fe 3c
       0.04504233 0.007975911 0.034848135 0.031057376
000070 e6 d1 39 3d cb 71 fe 3c 6f 15 df 3b 4a 70 d6 bb
       0.04536619 0.03106012 0.006807975 -0.0065441476
000080 a6 b7 36 3c 1d 72 d9 3c bc 50 47 3c 32 5e 6f bc
       0.011152184 0.026543671 0.012165245 -0.01460986
000090 f3 ce 22 3d 5f 33 45 3d 95 57 3d 3d 2d a2 bb 3c
       0.039748143 0.048144694 0.046226103 0.02290448
0000a0 ae ad f4 3c f4 23 ab 3c 7b f7 22 3d 4e 2b e1 b9
       0.029867973 0.020891167 0.039786797 -0.0004294761
0000b0 3c 22 cb bc 70 3f d6 3c b4 6e d6 3c d2 64 3b 3d
       -0.024796598 0.026153296 0.026175834 0.045750447
0000c0 86 6f 28 3d e2 0d cc 3c e5 d0 10 3d 93 88 44 3d
       0.041121982 0.024908964 0.035355467 0.04798181
0000d0 1c 7e d4 3c b9 ee 3c 3c 7e 24 1b bc 43 fa 26 3d
       0.02593904 0.011531525 -0.00946915 0.040766012
0000e0 5b 93 6e 3d 78 9f 1b 3d a8 33 45 bc c1 cd 3d bc
       0.058245998 0.037993878 -0.012036242 -0.0115847
0000f0 08 46 1c 3d 49 5f 49 3d 52 b4 27 3d b6 b0 50 3c
       0.038152725 0.049163137 0.04094345 0.012737444
000100 bf 14 35 3d 95 e5 16 3d 81 57 f0 3b 57 22 b3 3c
       0.04420924 0.03684004 0.00733465 0.02186696
000110 9a f0 3d bc c0 bf 3d 3c 3c 40 0b bc 37 53 af 3c
       -0.011593008 0.011581361 -0.008499201 0.021401985
000120 3a 3e e3 3c 57 ac c7 3c e1 4c 0b 3d a0 19 48 3d
       0.027739633 0.02437417 0.034008864 0.048852563
000130 7e fd e6 ba 77 e8 b2 3c 55 0b 12 3c 6d 5e 9b bc
       -0.0017623154 0.021839364 0.008913835 -0.018965924
000140 0d e2 c9 3c 1f 60 d8 bc d1 8e 14 3d e3 66 63 3c
       0.024643922 -0.026413022 0.036269013 0.013879511
000150 ae 27 6e 3d 1b 1a 2e 3d 4d a7 3c 3d 18 57 63 3d
       0.05814331 0.042505365 0.046057988 0.05550298
000160 ff 36 00 3d a4 e3 a5 3c 8f 16 ae bc 5b 36 50 3c
       0.03130245 0.02025015 -0.021250991 0.012708272
000170 66 5b 7b 3b df 01 a3 3b e5 d4 16 3d a5 f7 c4 bc
       0.0038354038 0.0049745883 0.036824126 -0.024043867
000180 5b be 11 3d 7f 74 02 3c bb d0 fc bb 15 b2 63 3d
       0.035581928 0.007962345 -0.0077153123 0.055589754
000190 2f 17 29 3d a2 00 ff 3c f4 c4 04 3d 41 53 83 3c
       0.041281875 0.031128231 0.03241439 0.01603091
0001a0 5b 93 1b 3d a0 9e 3d 3d 3d 50 1d bc cd e6 3e 3c
       0.037982326 0.046293855 -0.00960165 0.011651707
0001b0 06 a2 e2 3c 65 10 83 3d 5c ad 33 b8 09 40 b1 3c
       0.02766515 0.063996114 -4.283838e-05 0.02163698
0001c0 ed 59 8f 3c 89 84 d4 3c 2f 79 a3 bc da 1c 22 3d
       0.017498935 0.025942104 -0.019955246 0.039578296
0001d0 2b d9 4e 3d c4 b9 26 3d 6e 39 22 bd 3f a5 58 bc
       0.050500076 0.040704504 -0.03960555 -0.0132229915
0001e0 9e 61 10 3d c6 40 34 3d 6b ab a9 bc f6 72 2d 3a
       0.035249345 0.044007085 -0.020711621 0.0006616557
0001f0 bd 8a f4 3c bb 76 6e 3c 8a 00 74 3c cc 18 32 3d
       0.029851312 0.014554675 0.014892707 0.04348068

sequential/dense/MatMul f4 [128, 1000]
000000 fa c8 71 3b 3a df 83 bc 00 ed 18 3c e0 c6 67 3c
       0.0036893473 -0.016097654 0.009333849 0.014146537
000010 72 c3 15 3d 0c ff 9d bc 0c 85 ef 3c 7d 50 a9 bc
       0.036563344 -0.019286655 0.029238246 -0.020668263
000020 a9 b8 0f bd 9b ce 8a 3c b3 80 24 bd 58 02 81 3d
       -0.035088215 0.01694422 -0.0401618 0.06299275
000030 90 25 fc bb da 52 f6 bb c0 4c 96 ba 4c 20 b4 bc
       -0.0076949075 -0.007517201 -0.0011466965 -0.021988057
000040 38 f6 b2 3c 3d 29 61 3c bd cb 7c 3d a5 4c 09 3d
       0.021845922 0.013742742 0.061717737 0.03352036
000050 da c5 b9 3d 46 38 f1 bb 3e 69 34 bc 92 96 9d bc
       0.0907094 -0.0073614446 -0.01101142 -0.019236837
000060 94 39 43 bc 10 d1 79 3c 85 1f ec 3c 5b f3 60 bb
       -0.011915583 0.015247598 0.028823623 -0.0034324739
000070 f6 39 2e bd 20 49 06 3b 8e 39 84 3d 52 a9 a5 3d
       -0.042535745 0.0020490363 0.0645629 0.08088936
000080 82 86 ff bc ec dd 78 3d a1 c4 75 bd 0a bb 06 3b
       -0.031192068 0.060758516 -0.060001973 0.0020558261
000090 80 b4 3c bd 54 42 a2 3d b4 a3 95 3d be 6f d7 3c
       -0.046070576 0.07922807 0.073066145 0.0262984
0000a0 ef c0 13 3d 5c 68 d9 bc 38 83 1c 3c 10 7f 8d 3c
       0.036072668 -0.02653902 0.009552769 0.017272502
0000b0 8d 9a 81 bd 19 15 65 bd c4 0a 34 3d 34 6a cc 3c
       -0.06328306 -0.055928323 0.04395558 0.024952985
0000c0 f3 90 4b 3d 29 36 92 bd d0 ef fa 3c d9 73 10 bd
       0.04969878 -0.071392365 0.03063193 -0.03526673
0000d0 08 30 c2 3c c8 21 68 3d d1 e3 c5 3d 38 9c cf 3c
       0.023704544 0.05667284 0.09662593 0.025343046
0000e0 44 be e1 bc bf 48 67 3c 9d 0b 0d 3c d5 58 24 3c
       -0.027556546 0.014116465 0.008608726 0.010030945
0000f0 6e 14 da 3c 83 d2 85 3b df 4d a5 3d 56 08 9e 3d
       0.02662107 0.004083933 0.08071493 0.07716434
000100 d0 2e c2 bb 5e 6c 51 3c af 5c 7c 3d 74 f3 e0 3c
       -0.0059259906 0.012782184 0.061611827 0.027459837
000110 af 8b 72 bd 14 10 c2 bd da b4 8c 3d 1c 17 49 3d
       -0.059215244 -0.09475723 0.06870432 0.049094304
000120 6f 5c 3f 3d a1 74 99 bd bc a0 af bc cf 10 8b bd
       0.04671901 -0.07492948 -0.021438949 -0.06790315
000130 44 6e 67 3d 00 af b9 3a e6 44 57 3c 98 d3 c3 3d
       0.056501642 0.0014166534 0.013138985 0.09561843
000140 87 43 86 bd 8e da 61 3d 70 20 7e bd 5e 5c a2 3c
       -0.065558486 0.05514007 -0.062042654 0.019819435
000150 d8 97 f6 bc cc d3 bb bb e5 92 78 bd 34 58 7e bd
       -0.030101702 -0.0057320353 -0.060686965 -0.062095836
000160 02 05 66 bd 58 0e 7f 3d 85 83 7b 3c d0 fe a8 3b
       -0.05615712 0.06226954 0.015351181 0.005157329
000170 64 7c 70 bc 54 80 80 bd d6 e1 aa bc 4f dd 6d bc
       -0.014678095 -0.06274477 -0.02085964 -0.014518096
000180 c9 59 c7 3d 85 5b 8e bd 2c 1a 51 bd 46 40 76 bc
       0.09733922 -0.0695105 -0.05105035 -0.015029972
000190 00 58 21 bb 88 a3 55 bc 88 71 21 3c 0f ea 0e bd
       -0.0024619102 -0.013039477 0.009853728 -0.034891184
0001a0 77 16 da 3c 50 25 d3 bb dc d9 f7 bc 6d 2e 11 3d
       0.02662204 -0.006443657 -0.03025525 0.035444666
0001b0 d8 56 57 3c a0 0e 73 bd 4c 6a 1b 3c e4 f7 64 3d
       0.013143264 -0.05934012 0.009485792 0.05590047
0001c0 60 a9 12 bd b5 0b e0 bc d7 30 40 bc 3a ce 1f 3d
       -0.03580606 -0.027349332 -0.011730394 0.039015032
0001d0 2a 37 05 bd 40 3c b9 bb 75 3d 4b 3d 2a 38 9d bc
       -0.03252331 -0.0056529343 0.049619157 -0.01919182
0001e0 57 28 bc bd 67 8b 97 bd c6 68 ea 3c 0a fe 14 bc
       -0.09187382 -0.07399636 0.028614413 -0.009093771
0001f0 04 d1 91 3d bc dc 8d bd fc 21 30 bd f8 5e 79 3c
       0.07119945 -0.06926867 -0.04300116 0.015220396
000200 bf 47 0a bd 05 3c b7 3c f2 cb d1 3c f2 35 bb 3a
       -0.03375983 0.022367487 0.025609944 0.0014283045
000210 b6 bb 93 bc 10 bb e9 bc 0a 27 6e 3d 98 77 ec ba
       -0.018033843 -0.028531581 0.0581427 -0.0018041013
000220 30 3b a9 bb 5c af 9f bc 0a 1b 67 bd 77 37 ad 3d
       -0.0051645264 -0.019492798 -0.05642227 0.08457845
000230 10 5f 81 3d 30 a8 aa 3d fe ac 16 3d 5d 7b 13 3d
       0.0631696 0.083328605 0.036786072 0.03600632
000240 1c f9 51 3d 9d 99 6a 3d 2b ec 53 3d 0a 4c 79 bd
       0.05126296 0.057275403 0.0517389 -0.060863532
000250 34 cd f3 bc 8c 24 25 bd 81 90 89 bd e8 66 38 3d
       -0.029760934 -0.040318057 -0.06717015 0.045020014
000260 cf 35 b7 bd 34 a0 ba bd 08 36 80 bc 7c ee 60 3d
       -0.0894581 -0.091125876 -0.015650764 0.054914936
000270 83 48 11 bd 0c 9d d4 3c dd 45 0f bc 3b 57 88 bd
       -0.035469543 0.025953792 -0.008744684 -0.06657263
000280 46 b0 22 3d 70 b5 85 3b 7f ae 47 3d 73 e2 9e bd
       0.03971889 0.004080467 0.048750397 -0.077580355
000290 0f 0e cd bc 1a b1 9c bd d0 49 3a bd 8a fc 34 bd
       -0.025031118 -0.07650967 -0.04548055 -0.044186153
0002a0 54 c7 8b 3d 0a 0c 35 bd 0b 36 1a bd e1 7f 54 3d
       0.06825128 -0.044200934 -0.037649196 0.051879767
0002b0 06 0d ad bd b8 aa 01 3d 0e 97 81 3d a3 68 bf bb
       -0.0844975 0.03165695 0.063276395 -0.005841331
0002c0 84 f3 53 3d b6 b3 d3 3c c0 3c fd bc 19 96 22 bd
       0.051745906 0.025842529 -0.030912757 -0.039693926
0002d0 c0 94 c7 b9 6e d5 bd 3b 43 72 97 3c 6b 98 e1 bc
       -0.00038067065 0.005793265 0.018487101 -0.027538499
0002e0 75 4f 62 bc 5d a4 0a bd d9 98 b7 3b 9e 5c 94 bd
       -0.013812889 -0.033848155 0.0056029377 -0.07244228
0002f0 99 1b 19 3c a5 12 73 bd ab 0f 04 3d 76 eb 89 bd
       0.009344959 -0.059343953 0.032241505 -0.06734364
000300 52 eb f7 bc 4c ff b9 3d 8c ab 0c 3d 9e 23 30 bd
       -0.030263577 0.09081897 0.034343287 -0.043002717
000310 98 e4 4f bd f5 c8 d7 3c 0d 12 b6 3d 79 e9 43 3d
       -0.050755113 0.026340941 0.08890162 0.04783008
000320 63 e5 20 3c ea 8c 7e bd cd de d0 bc aa f1 8f bd
       0.009820315 -0.062146105 -0.025496865 -0.07028516
000330 9f 64 b2 bc 58 81 05 3c fc 9e 68 3d dc 17 24 3d
       -0.021776496 0.008148514 0.056792244 0.040061817
000340 20 ba 87 bd 02 96 67 bd f4 da a2 3c 88 40 28 3c
       -0.066272974 -0.056539543 0.019879796 0.010269292
000350 3b 53 56 3d 27 69 af bd ea 8b 2e 3d 6a 60 50 3d
       0.05232547 -0.08564978 0.0426139 0.050873198
000360 27 0c f8 3c 94 41 80 3d 9d ac 62 bd d2 6e 5e 3d
       0.030279232 0.06262508 -0.055340398 0.054304905
000370 52 cf b7 3c 39 ef 4f bd 94 59 85 bd 3d 24 27 bd
       0.022437725 -0.05076525 -0.06511226 -0.040806044
000380 17 4e 50 bd da 90 14 bd 75 7a 6b bd 80 7c b5 3b
       -0.050855722 -0.036270954 -0.05748983 0.005538523
000390 10 3e b5 bd bc 91 77 bc f8 fd 75 3d c8 89 0a bc
       -0.08849728 -0.015110429 0.060056657 -0.008455701
0003a0 25 5c 0d 3d b4 3e 50 3d 8c 96 e2 3c 8a 58 78 3d
       0.034511704 0.05084105 0.027659677 0.060631312
0003b0 2a 95 04 3d 20 d2 72 3c e3 85 cf bd 4c bc de 3c
       0.032368816 0.0148206055 -0.10132959 0.027189396
0003c0 b3 64 8e 3d f9 cb 80 3b 98 8f f9 3c fc 1c 99 3c
       0.069528006 0.0039305654 0.030463979 0.018690579
0003d0 3a 0c 1a 3c 00 28 cd bc 6a 8c c5 3c 5c de 85 bd
       0.009402329 -0.025043488 0.024114806 -0.06536552
0003e0 2c 45 1c bd e7 86 14 3d e0 14 e6 3c 11 17 b3 3b
       -0.038151905 0.036261465 0.028086126 0.005465396
0003f0 d5 28 b5 3c 7a 97 c5 3d 40 97 a9 3c 5c 28 91 3d
       0.022114197 0.096480325 0.020702004 0.07087776

sequential/dense_1/MatMul f4 [64, 128]
000000 f8 15 33 bd 77 49 1c be 40 e9 99 bd 6d a5 c5 bd
       -0.043722123 -0.152624 -0.07515192 -0.09650693
000010 73 c6 24 3e 7e 7b b0 bd b9 5d 29 3e a7 ea 82 bd
       0.16091327 -0.08617304 0.16539659 -0.06392413
000020 cf fd b7 3d 0e 7c 2a be a5 33 33 be c6 b0 04 be
       0.08983957 -0.16648886 -0.1750017 -0.12958059
000030 f8 62 90 3d 53 5f cf bb b6 2a 08 be ce ad 2a bd
       0.07050127 -0.006328502 -0.13297543 -0.04166966
000040 16 f0 95 bd 56 77 3a bd f6 2a 30 bc 1b 8e 5c 3d
       -0.073211834 -0.045523964 -0.01075243 0.05384646
000050 4d e5 e4 3d d9 e3 4f bd 23 57 74 3c 45 f3 13 3d
       0.11176548 -0.0507544 0.014913353 0.03612067
000060 7c 10 2b 3e 0a 55 d7 bd 55 a3 02 3e 49 1f a0 3a
       0.16705507 -0.10514267 0.12757619 0.0012216355
000070 d5 53 67 3c cd 9f 88 bd 9c 09 0f be 95 e7 92 bc
       0.014119108 -0.066711046 -0.1396851 -0.017932693
000080 49 70 0e be 09 25 88 3d f5 73 99 bd 39 b8 b7 bd
       -0.13910021 0.06647689 -0.0749282 -0.089706846
000090 c4 8a ea bc d8 22 2a 3d 92 98 bd 3c 7c 88 1c bd
       -0.028630622 0.041537136 0.02314404 -0.0382161
0000a0 85 8f 68 3e de ec 1a bd 74 89 41 be 7f ee cc 3d
       0.22710998 -0.03782355 -0.1890009 0.10006427
0000b0 a1 37 28 3e 26 3e 71 bd 15 fa 37 3e 92 26 7e 3d
       0.1642747 -0.05889716 0.17966492 0.062048502
0000c0 c9 b5 37 3e ab 6e 8f bd 5e d5 88 3d 40 6f e7 bd
       0.1794044 -0.0700353 0.066813216 -0.11300516
0000d0 7e 46 dc bc cd 4f b6 bd eb c7 f6 3d ad 0d 2a bd
       -0.026889082 -0.089019395 0.1204985 -0.04151695
0000e0 48 1f 25 bd 12 23 fc bd bf 17 6f bd bd a7 43 bb
       -0.040313035 -0.12311377 -0.058372255 -0.0029854618
0000f0 3f 43 8c bc 27 c9 1e 3d ce 45 36 bd 9c 17 08 3e
       -0.01712191 0.038766053 -0.044500165 0.13290256
000100 70 e0 1b 3e b6 50 55 3e 8f 57 2f bd 81 f3 6d bd
       0.15222335 0.2083157 -0.04280811 -0.05809355
000110 80 93 fd 3d bf 5f 98 bd 1f d6 c1 3d bf b2 09 bd
       0.12381649 -0.07440137 0.094646685 -0.03361773
000120 a7 df 54 bd 36 b6 30 3e eb 9a 7a 3d 87 2a 74 3e
       -0.051971104 0.17257008 0.061182898 0.23844348
000130 11 c7 24 bd d7 45 d3 bd fb f9 bb bb 4d 95 e8 bd
       -0.040228907 -0.10316055 -0.005736587 -0.11356602
000140 99 58 d6 3d 38 34 aa 3d 7e d5 b1 bd ed 93 49 3e
       0.104661174 0.08310741 -0.086832985 0.19685335
000150 c4 57 e7 3d f8 06 8e bb 5d a4 c6 3d 28 87 f3 3d
       0.11296037 -0.004334327 0.096993186 0.118910134
000160 4f 17 00 be 01 a8 86 3e 5f c4 8d 3d 2b 8f 1c bc
       -0.12508892 0.26300052 0.069222204 -0.009555618
000170 13 1d a5 bc 53 14 db 3c bd 79 e8 bc 75 39 13 be
       -0.020155465 0.02674309 -0.028378362 -0.14377387
000180 b6 5e b8 bd 22 47 51 bd da ca f7 bc a5 ff 30 bc
       -0.0900244 -0.05109323 -0.030248094 -0.010803138
000190 d9 aa 9e bc db 12 1c be 3f ae d2 3c 97 bf 8e bc
       -0.019368576 -0.15241568 0.025717853 -0.017425342
0001a0 06 0d 96 bd be 9c 0c be 03 7c d1 3b c1 d1 c7 3d
       -0.07326703 -0.13731667 0.006392957 0.09756804
0001b0 97 1e db 3c a6 2c 0a bd ae 16 74 bd 28 65 43 bd
       0.026747985 -0.033733986 -0.05959194 -0.047703892
0001c0 24 6f ac bd 41 55 ca 3d a8 ff b9 3d c2 a8 32 3d
       -0.08419636 0.09879542 0.09081966 0.04361797
0001d0 6b 19 61 3e 86 f6 15 3e 14 28 91 bd 47 7c 6e bd
       0.21982352 0.14644822 -0.070877224 -0.05822399
0001e0 38 88 e2 3b 0d 9e 59 bd ef d5 93 3d c9 b8 2d bd
       0.006913211 -0.053129245 0.07218539 -0.042412553
0001f0 d5 21 87 bd f8 f5 b7 3b 62 a6 6a 3e 90 09 86 3e
       -0.0659825 0.0056140386 0.22915033 0.2617917
000200 4b 8a f4 3c 5f 64 5e 3d 78 3b 25 bd 66 96 d8 3b
       0.0298511 0.05429494 -0.040339917 0.0066097258
000210 b3 87 25 3e 11 c7 31 3e 9f 56 75 bb 35 b7 f5 bc
       0.16165046 0.17361094 -0.0037435663 -0.029994586
000220 29 bf 49 3d 55 45 17 bd d0 42 2e 3d d1 8d 4e bd
       0.04925457 -0.036931355 0.042544186 -0.050428215
000230 77 c4 09 be 32 02 8b bc b4 7d fd 3d b2 8f c8 bd
       -0.13453852 -0.01696882 0.123774916 -0.09793033
000240 63 4a 91 bc 65 cb a0 3d 7c 89 d1 3d 64 5b 6a bd
       -0.017735666 0.078512944 0.10231301 -0.057216063
000250 b1 42 89 3d f8 37 2b be c9 3f 95 3b af cd ce 3c
       0.067021735 -0.16720569 0.004554723 0.025244562
000260 8c 8f e9 bc c0 44 db 3c c3 1a dc 3d 3f 84 e0 bd
       -0.028510831 0.026766181 0.10747292 -0.10962724
000270 6b 96 1f 3e d9 a7 61 bd aa 1b 89 3d 82 07 03 be
       0.15584724 -0.055091713 0.066947296 -0.12795833
000280 56 0b d9 3d 32 2c e8 3d e3 91 2c be f4 09 48 be
       0.10597865 0.113365546 -0.16852526 -0.19535047
000290 20 55 26 3e 73 50 07 bd 06 6e 3d be af e9 fa 3d
       0.1624341 -0.033035707 -0.18499002 0.12251603
0002a0 3b e8 99 3d 45 00 13 3d a7 eb 21 3d 73 1b c3 bd
       0.075149976 0.03588893 0.039531376 -0.0952672
0002b0 bc 38 b3 3d 56 a3 de bd 6b 80 c4 3d 11 e5 15 3e
       0.087510556 -0.108709976 0.09594806 0.14638163
0002c0 22 ec 3d 3e eb 29 e9 bd d3 f5 01 3e ea 65 0a 3e
       0.18547109 -0.11384948 0.12691431 0.1351544
0002d0 61 ed 3b bd e2 40 b8 3d 9f 52 07 3e f2 aa 2e 3e
       -0.04588068 0.089967504 0.13215111 0.17057398
0002e0 89 5e 96 bc ef 2e 9c 3d ac f5 0e 3e ff 51 e8 bd
       -0.018355625 0.076261394 0.13960904 -0.113437645
0002f0 a5 46 03 3e 38 0a e5 3c 92 a9 e0 bc dc 8e 02 be
       0.12819918 0.027958974 -0.027424607 -0.12749809
000300 62 7b 11 bd 76 bd 3a 3d 74 b6 1d 3d 2a 04 27 3e
       -0.035518058 0.04559084 0.03850408 0.16310182
000310 8c c3 d8 bd 45 8e 87 bd 95 98 c0 3d 69 72 23 ba
       -0.105841726 -0.06618933 0.09404103 -0.0006235005
000320 d9 48 ac bb 84 a0 ff bb aa fb c1 bb 7c 5a db 3d
       -0.0052577076 -0.0078011174 -0.0059198933 0.10710618
000330 8f 3e da 3d 4f e4 ce bd e2 8a 5e 3d b2 0d 37 3d
       0.10656463 -0.1010214 0.054331668 0.044690795
000340 47 35 ab 3d bf f6 de bd 27 fa 20 be 69 b3 ef bc
       0.08359771 -0.10886907 -0.15720426 -0.029260354
000350 ef 44 c5 bd d4 61 22 be 55 09 4a be 06 6b 19 3e
       -0.09632289 -0.15857631 -0.19730122 0.14982232
000360 81 3b 08 be b6 70 ae 3d bb 95 03 be f1 48 50 bd
       -0.13303949 0.08517592 -0.12850086 -0.050850812
000370 69 47 95 3c 0d d1 ee 3d d8 18 38 be 3c ae 1a 3e
       0.018222528 0.11660967 -0.17978227 0.15105528
000380 9a c8 24 3e f5 ab fb bc 55 e2 21 3e 1c 44 20 3e
       0.16092148 -0.030721644 0.15808995 0.15650982
000390 f6 56 ea bc 53 cc 83 bd 0d 7e f3 bc 0a 1d 3b bd
       -0.02860592 -0.06435456 -0.029723192 -0.04568199
0003a0 c6 39 8d 3d 2b ea c7 bc 79 51 b7 3b da 10 4c bc
       0.06895785 -0.024403652 0.005594429 -0.01245519
0003b0 23 36 2c be 5f 0d fd 3d 96 59 0a be b5 55 1d 3e
       -0.16817527 0.12356066 -0.13510737 0.15364726
0003c0 e4 cc cd bd 23 ff 5a bd 47 3a 74 bd b3 e3 e4 bd
       -0.100488454 -0.053465974 -0.05962589 -0.11176243
0003d0 a1 57 a1 bc 00 bd 0f bd e3 29 b4 bd 7d b7 97 bd
       -0.019695105 -0.035092354 -0.08797052 -0.074080445
0003e0 eb be 98 bd 4b a9 49 3d 51 0d 3b bd 2b 5a 6c bd
       -0.0745829 0.049233716 -0.045666996 -0.05770318
0003f0 31 60 8d 3d a3 ee e9 bd 00 bd e4 bd 38 1b a3 bc
       0.06903113 -0.114224695 -0.111688614 -0.01991044

sequential/dense_2/MatMul f4 [32, 64]
000000 32 00 8b 3d 0d 18 63 bd b2 65 09 bd 21 39 a2 bd
       0.06787147 -0.05544286 -0.03354425 -0.07921053
000010 ca 65 29 bc 1c ee a1 3e be 56 94 3e 78 21 98 bc
       -0.01033921 0.31626976 0.2897243 -0.018570647
000020 4c 71 87 3e 7e 28 a3 3e 6b dc 38 be d7 83 03 be
       0.26453626 0.3186683 -0.18052833 -0.12843262
000030 aa 69 27 3e 07 53 57 3e 26 38 97 be bc 19 3a bc
       0.16348901 0.21027766 -0.29535025 -0.011358675
000040 f2 94 5a 3e d5 68 14 bd af f8 8a bd 45 93 bb bd
       0.2134588 -0.036232788 -0.06785714 -0.09158949
000050 e6 d0 01 be 31 35 9d 3d 47 91 f1 3d eb 1b 96 bd
       -0.12677345 0.07676161 0.117952876 -0.07329544
000060 ae b3 81 be 41 d4 66 be 37 ba 08 3e 3f a9 d4 bd
       -0.25332397 -0.22541906 0.13352285 -0.10383844
000070 6a 67 8e bd 72 5d 84 be 44 e5 81 be 01 19 8e 3d
       -0.069533184 -0.25852543 -0.25370228 0.06938363
000080 28 dd 4f bd 6d 03 13 3e 89 51 4a 3c 8d cc ee 3d
       -0.05074802 0.14356776 0.012348541 0.11660109
000090 84 32 65 3d 86 f7 35 be 30 d7 f4 3d 20 67 6f 3e
       0.05595638 -0.17770204 0.11955106 0.23379183
0000a0 1d 39 4c be f9 09 ef bd c0 fa e4 bc 87 73 b3 bd
       -0.19943662 -0.11671824 -0.027951598 -0.087622695
0000b0 a9 8d 0c 3e 10 b1 9b 3e 75 30 bd 3e b3 b4 94 3e
       0.13725914 0.30408525 0.36951032 0.29044113
0000c0 80 ec d4 3d 26 92 a1 3d eb 74 6d 3e 9a bf a5 3e
       0.10396671 0.07889204 0.23189132 0.32372743
0000d0 c1 36 9b 3d 38 26 be bc 8d 7c 07 3e 02 f7 6b 3d
       0.07578803 -0.023211583 0.13231106 0.057608612
0000e0 85 34 25 3e 2a c1 ff 3c d5 92 83 3d 7c f7 5f 3e
       0.16133316 0.031220037 0.0642449 0.21871752
0000f0 5a 70 2e bd 47 1a f2 bd 2e fd 99 3d df 19 02 be
       -0.042587616 -0.11821418 0.07518993 -0.12705182
000100 9f 67 85 3d 2d 9a 27 3e 4c 09 0b be 14 37 3d bd
       0.06513905 0.16367407 -0.13577765 -0.046195105
000110 68 31 06 3e 2e ab a6 bc f5 e9 26 3d eb e9 06 3d
       0.13104784 -0.020345297 0.040750463 0.032937925
000120 cb 14 53 3e 30 55 11 3e a6 e9 cd bd f0 3c 8b bd
       0.206134 0.14192653 -0.100543305 -0.06798732
000130 22 60 72 3d 42 46 54 3d e4 41 91 3c 6d 41 cb 3c
       0.05917371 0.051824816 0.017731614 0.02481147
000140 e5 15 ca 3d dd 0f cf bd fc a2 32 bc 80 5a 34 3e
       0.09867457 -0.101104476 -0.010903116 0.17612648
000150 3d 18 4c be f0 da 8e 3e d8 68 83 bd f5 7a 9c bd
       -0.19931121 0.2790141 -0.06416482 -0.0764064
000160 9e 3a 82 bc 22 eb d0 bc c8 d6 81 bd 5a 14 71 3e
       -0.015897091 -0.025502745 -0.063397944 0.2354292
000170 32 6c 3f be 37 ad 62 be 54 6c 48 be 23 7a bc bd
       -0.18693617 -0.22136389 -0.19572574 -0.09202983
000180 ec 0d 22 3e 19 ee e8 bd 2a 4a 99 3e a7 06 60 be
       0.15825623 -0.113735385 0.29939395 -0.21877538
000190 50 28 a5 bd 98 55 91 3d b4 d7 01 3e 02 76 d2 3c
       -0.080643296 0.07096404 0.1267994 0.025691036
0001a0 08 5e 5e be e3 d7 c2 bd 1a 06 a9 3d f7 0e a3 3e
       -0.21715558 -0.095138334 0.08253117 0.31847355
0001b0 4e 3b ad 3c 6b 22 df 3d f7 2f 9a bd ac a4 c2 3d
       0.021146443 0.108952366 -0.0752868 0.09504065
0001c0 e9 a1 4e 3e 22 97 73 3e 76 1a 1d 3e 4f cb 2f 3e
       0.20178951 0.23788121 0.15342125 0.171674
0001d0 1b 1b e9 3d 93 33 f4 3c f4 c6 6c 3d 11 65 58 3d
       0.11382123 0.029809749 0.057806924 0.05283076
0001e0 97 32 09 bd 19 e6 cc 3d 24 50 35 3e 05 99 f2 b9
       -0.03349551 0.10004825 0.17706352 -0.00046271845
0001f0 fc 6a 98 3d 19 98 61 3e 66 cc 32 bc fe f6 76 be
       0.07442281 0.22030677 -0.01091299 -0.24117658
000200 b3 3c 00 bd 30 15 d5 bd f1 57 9d 3e 26 a4 23 3d
       -0.031307887 -0.10404432 0.30731156 0.039951466
000210 bf 11 f2 3d c2 87 2a 3c d3 7b 42 be ca 75 d7 bd
       0.11819791 0.010408344 -0.18992548 -0.10520513
000220 0d 36 ae bd 5b 9c 88 be a9 1c f2 3c d7 b9 7d 3e
       -0.08506403 -0.2668179 0.029554682 0.24777924
000230 a1 0d 4b 3e ac 7d f2 bd f6 9b 9d 3e 97 a2 ba 3c
       0.19829418 -0.11840376 0.3078305 0.022782607
000240 35 29 07 be f5 c7 14 3e 9d e2 ec bd dc 4c 06 3e
       -0.13199313 0.14529403 -0.115666606 0.13115257
000250 df e9 de bd ce 09 c0 bd 04 02 c8 bd 7d a9 8f 3e
       -0.10884451 -0.0937687 -0.097660094 0.28058997
000260 b6 f9 4e 3e b4 6b 2c be 21 8d 34 3e e7 e5 72 be
       0.20212445 -0.1683796 0.17631961 -0.23720513
000270 3a 28 e6 bb 35 a7 1a 3e 3f bf b5 3d ed 32 18 3e
       -0.0070238383 0.15102847 0.08874368 0.14863177
000280 b0 39 69 3e 11 b9 80 3e 34 6e dc bd dd 71 9c 3e
       0.22775912 0.25141194 -0.10763207 0.3055562
000290 d4 7a 95 3e 8a 0d 85 3d a3 cf d3 3d 07 1f 2c bd
       0.29195273 0.06496723 0.10342338 -0.042021777
0002a0 ba 3f a4 3e 58 4b 6a 3e c8 dc 0e bc dd f6 3d be
       0.3207987 0.22880304 -0.008719631 -0.18551202
0002b0 2d 3d ba 3d 60 74 08 be a4 cd 57 be 48 f5 ac 3d
       0.090936996 -0.13325644 -0.2107454 0.08445221
0002c0 4c 0a 03 be 9e 1d 2b 3e d8 76 4a be b2 b9 48 be
       -0.12796897 0.16710517 -0.19771898 -0.19602087
0002d0 ca d5 96 3e fa 26 14 3e df 16 ae 3d fc 3f f0 bd
       0.29459983 0.14467993 0.08500456 -0.11730954
0002e0 1f 98 fb 3c ae 1f d6 3d a1 b5 3e 3c d9 0c 9f 3d
       0.030712185 0.10455261 0.011639983 0.07766122
0002f0 63 1d 41 be d5 34 2e 3e 67 dd 26 be 06 ff b1 3e
       -0.18858866 0.17012341 -0.16295396 0.3476488
000300 83 d5 27 3e 3c e4 47 3e a1 33 31 be 37 e5 77 3e
       0.16390042 0.19520658 -0.17304851 0.24208532
000310 92 e4 50 3d 6a af c5 3e 9d af c3 3e ff 4e 27 bb
       0.05099923 0.38610393 0.3821992 -0.0025529263
000320 29 db bc bc 04 a6 8e 3e 4a a1 8b 3e ff 07 3b 3e
       -0.023053722 0.27861035 0.2727149 0.18264769
000330 0e ca 60 3c 29 e0 4b bd 41 22 07 3d 3b b3 40 3e
       0.013720049 -0.049774323 0.03299165 0.18818371
000340 b2 58 9c 3d 55 47 a3 3d a7 7d bf 3d 19 3c 20 3e
       0.07634105 0.0797259 0.09350138 0.15647925
000350 33 04 4e bd 6a b6 5d 3e 74 1b 8a bb d7 0a 9f 3d
       -0.050296973 0.21651617 -0.0042146984 0.077657394
000360 2d f2 66 bc a1 23 ab bd d4 e2 da 3d e4 fd 75 3e
       -0.014095825 -0.08356405 0.10687795 0.24022633
000370 dd 9e 28 be 82 ee 3f bd 53 a7 f0 bd 15 06 4d 3c
       -0.16466852 -0.04685832 -0.117506646 0.012513657
000380 23 3b a8 3d 3b 28 2b 3e 75 c1 64 3e 23 33 ff bd
       0.082144044 0.16714565 0.22339423 -0.124609254
000390 d9 f4 1e be 91 70 d9 bd 8c d0 61 3e 0d 65 35 3e
       -0.1552309 -0.106171735 0.2205221 0.17714329
0003a0 0d a8 c6 3d 05 db 84 3d 17 e9 80 3e 26 70 a0 3e
       0.09700022 0.06487087 0.25177833 0.31335562
0003b0 92 fc 11 bd 49 94 a2 3c fa f5 ab 3d 32 70 15 be
       -0.03564126 0.019846098 0.08396526 -0.1459358
0003c0 e0 f6 b4 3d 8d 48 88 3e 4b b3 a8 3e 9e 02 23 3e
       0.0883615 0.26617852 0.3294929 0.15918967
0003d0 a2 6b 0c 3d e0 14 81 be c9 f1 ec bd 61 34 44 3d
       0.034282334 -0.2521124 -0.11569554 0.047901515
0003e0 7c 14 15 bd 8c f9 2c be 5a 12 21 be a2 da 6a 3e
       -0.03639649 -0.1689207 -0.15729657 0.22934964
0003f0 77 d9 7a 3e 2e 10 18 3e 1d 8e 7f 3d 51 41 90 be
       0.24497019 0.14849922 0.06239139 -0.28174832

sequential/dense_3/MatMul f4 [1, 32]
000000 32 e4 94 be 66 4d b2 be b9 19 34 3e 97 31 32 be
       -0.2908035 -0.34824675 0.17587937 -0.1740173
000010 ab b8 93 3e 78 57 be 3e fc b1 94 be ef d7 d3 3e
       0.28851828 0.37176108 -0.2904204 0.41375682
000020 88 46 33 3e 24 ab e4 3d 5d 58 04 3f 59 7b 72 3e
       0.17507374 0.11165455 0.5169733 0.23679866
000030 0e de b4 be 1d 4e d3 be 49 80 03 3f 94 6d 78 be
       -0.35325664 -0.41270533 0.5136762 -0.2426055
000040 ea 61 db be 0b c5 d4 3e 0c a1 f8 be d3 99 5f 3e
       -0.4284814 0.41556582 -0.4856037 0.21836023
000050 4e fb fd bd 40 29 06 3f 65 52 7b 3e be a2 e7 be
       -0.12401448 0.5240669 0.2454315 -0.4524135
000060 49 e6 a1 be 5d da dd be 97 32 4a 3e a9 22 59 3d
       -0.31621006 -0.4333066 0.19745861 0.05301157
000070 23 60 a3 3e c8 30 ac 3e c5 c0 e6 3e 09 b0 09 be
       0.31909284 0.33630967 0.45068946 -0.13446058
