Recomendation System/Code/RecSys_CBF.tflite (tflite, 31360 bytes, 2 tensors)

model_1/user_embedding/embedding_lookup f4 [100, 64]
00000000: 4732 8dbe 4ae7 bcbc ad50 513d d959 fa3d
00000010: 7fe6 6d3e 37b2 d43d 5d9a 7c3e 5abf 6b3e
00000020: 1603 073e 60e3 53be 5fc6 8f3e a5ee 883e
00000030: a5c9 663e 9a5a 9a3e c582 823e a613 b2be
00000040: e947 eebe 89ce 613e cf05 97be b353 6dbe
00000050: 8094 76be ad23 8ebe a24b 5ebe b2aa ae3e
00000060: 6a45 80be 5429 243e e98b 85be 7600 2cbf
00000070: 4b73 e03e 998e c43d 783a 95be b17a 4d3e
00000080: aba7 24be 72d5 70be 0792 35be 65cb 6bbe
00000090: 3f4b a2be 8af8 92be 2509 37be e414 2bbe
000000a0: 7584 33be 363a 973e d817 be3e ccc6 0ebc
000000b0: 9eab 5d3e cad5 1b3e 4006 893e 6e28 ad3e
000000c0: 51e0 2ebe 8508 b9be 695e 89be f58a 0abe
000000d0: 56e3 983e 7d6d cc3e caad 86bc 9856 7dbe
000000e0: e8b0 5cbe fae3 5abe 74e5 c63e c6b1 54be
000000f0: 0755 103f b59b 37be 4754 8bbe 2b25 6e3e
00000100: a53f 09be 77f5 63be 6ac1 163e 8ecd 1bbe
00000110: 87a6 513e b2d0 0d3e e440 cd3d ebe0 ec3d
00000120: be15 1f3e f845 65be 9832 263e 29dd 243e
00000130: b5ed d7bd af17 5f3e 6682 5a3e 7da6 12be
00000140: 5235 4abe b184 5a3e 2f86 38be dee6 0abe
00000150: 3de0 12be 1049 28be 058f 29be 29a7 573e
00000160: ee3e 10be 0c18 2d3e a72a 48be a7e6 30be
00000170: fdb5 2e3e 085b 563e 7514 15be bd3f 103e
00000180: c70c 12be 197c 33be 92a2 05be 726c 60be
00000190: 0886 61be c5d8 4bbe 5d86 2ebe 649e 4bbe
000001a0: 81d9 26be bf4e 5d3e 9365 bb3d dc86 273e
000001b0: 27f0 123e 94ea ee3d 64c7 323e a4d0 583e
000001c0: 11ef 663e c097 d6bd c824 04be 07eb 2bbe
000001d0: d1bc 3a3e e5ba 2f3e cfbd 02be 854f 3bbe
000001e0: 8e79 12be 219b 45be 6cee 2e3e fe67 0fbe
000001f0: 2b85 41be 811c 6abe 0b9a 47be b5a7 d73d
00000200: 0fe5 51be 2038 2fbd 0cda e0bd 25da 5e3b
00000210: 5bed 8a3d 578e 913a 9d0e d73d eff1 1d3e
00000220: daed fbbc 6ea9 e3bd 77e4 113e ee41 433e
00000230: 786f aebe 22db 373e 501d ce3d e069 42be
00000240: 217d 05be c4f8 373e 9bde 46be 85c4 3fbd
00000250: bc2a 9abd f0f2 26be eecc e9bd 6e89 3a3e
00000260: 9e87 9fbd a6c3 2f3d 0a09 36be caed 3dbe
00000270: 740d 123e 5ab2 d9bd 8404 07be 7a7b 413e
00000280: 82a5 7bbe 1cec e0bd 9458 2bbe ce54 febd
00000290: 90a2 23be 56b8 49be 159d d9bd 688f 27be
000002a0: e86f 053e 572b 743e 67d6 fb3d 7261 06be
000002b0: c95a 9d3d e8ed 2a3d 2357 2e3e c414 343e
000002c0: 8d77 31bf aac1 a7be cc68 46be f1fd 51bd
000002d0: 3895 003e 69bc 673e 893e e73d 2818 cebd
000002e0: 4a26 3ebe 41e4 05be 46cd 303f 5f03 e0bd
000002f0: c5a6 0a3f d3f5 39be 998f febd 8d92 613e
00000300: e0d6 35be 4535 883e 0d5d 8d3d 9389 643f
00000310: df85 41bc 2012 6f3e 7471 c5be e0a7 5a3e
00000320: 128c 4b3e 6148 e6bd 3f0e 033d 14d6 fe3e
00000330: 24c1 3f3e 6bda ee3d 9999 a33e 02a3 e5be
00000340: 2d85 5ebf 6c73 c73d 6b80 02be b271 15bf
00000350: 3a21 6fbe be86 92be 3dde d9be 28cd c33e
00000360: 42f0 44be b5a2 e6bd d891 9abe 9c67 05be
00000370: 3c63 ba3d 4a4b 823e d54d 32be 449f d23e
00000380: acc1 13bf c7de 5ebe 9404 e2be a75e 47be
00000390: 4e88 83be 8458 7fbe c87f ee3c 2fab a5bc
000003a0: 0869 c1be 95f1 b23c fd3e dcbe f560 263f
000003b0: 3d4e 083e efc0 613e 7bd5 8b3e 5ae2 3c3e
000003c0: 651b 013f c777 50be af9d febe 9989 b13e
000003d0: b504 c93e a248 273f 9c96 83be 3ab8 6ebd
000003e0: a24a 31be d536 2fbe cd47 0abc d31f 9bbe
000003f0: 5c4e 933e 6cfd 9bbe 55fa 70be e283 4d3d
-0.2757742 -0.023059506 0.05110233 0.12224168 0.23232459 0.10385554 0.2466826 0.23022214
0.13184771 -0.20692205 0.28081033 0.2674457 0.22537859 0.30147249 0.25490394 -0.34780616
-0.46539238 0.22051443 -0.2949662 -0.2317646 -0.24080086 -0.27761593 -0.21708539 0.34114605
-0.2505296 0.1603139 -0.26083305 -0.67188203 0.43837962 0.09597511 -0.2914617 0.20066334
-0.16079585 -0.23518923 -0.17731486 -0.23026808 -0.31698033 -0.28705245 -0.17874582 -0.16707188
-0.17530997 0.295366 0.37127566 -0.008714389 0.21647498 0.15218273 0.2676258 0.33819908
-0.17077757 -0.36139312 -0.26829842 -0.1352957 0.29860944 0.39927283 -0.016440291 -0.24740064
-0.2155186 -0.21376029 0.38846934 -0.2077094 0.5637974 -0.17930491 -0.27212736 0.23256366
-0.13403185 -0.22261606 0.14722219 -0.15215132 0.20473681 0.13849142 0.100221425 0.11566337
0.15535638 -0.22389972 0.16230237 0.16099991 -0.10543386 0.21786378 0.21338806 -0.14321323
-0.19746903 0.2133968 -0.18019937 -0.13564631 -0.14343353 -0.16434121 -0.16558464 0.2105986
-0.14086506 0.16903704 -0.1954752 -0.17275487 0.1706161 0.20933163 -0.14558585 0.14086814
-0.14262687 -0.17527808 -0.13050297 -0.21916369 -0.22023785 -0.1990691 -0.17043443 -0.1988464
-0.16293909 0.2161207 0.09150233 0.16360039 0.14349423 0.11665836 0.17458874 0.2117334
0.22552134 -0.10478163 -0.12904656 -0.16788875 0.1823609 0.17161138 -0.12767719 -0.18292053
-0.14304182 -0.19297458 0.17083138 -0.14004514 -0.18898456 -0.22862436 -0.19492356 0.105300345
-0.20497535 -0.042778134 -0.10979089 0.0034004536 0.06783553 0.0011105043 0.10500834 0.15424322
-0.030753065 -0.111163005 0.14247309 0.19068119 -0.3406942 0.17954686 0.10064185 -0.189857
-0.13036014 0.1796599 -0.19420855 -0.046818275 -0.07527682 -0.16303611 -0.1141604 0.18216488
-0.07789539 0.042911194 -0.17776886 -0.1854774 0.14262944 -0.10629721 -0.13185316 0.18894759
-0.24574855 -0.10982534 -0.16733009 -0.12418519 -0.15979981 -0.19699225 -0.10625664 -0.16363299
0.1303097 0.23844658 0.122967534 -0.1312311 0.076833315 0.04173079 0.17025428 0.17586046
-0.69323045 -0.3276494 -0.19375914 -0.051267568 0.12556922 0.22630467 0.112912245 -0.10063201
-0.18569294 -0.13075353 0.6906322 -0.10938143 0.5416072 -0.18160181 -0.12429733 0.22028561
-0.1775775 0.2660314 0.06902514 0.8927242 -0.0118117025 0.23346758 -0.3856312 0.21353102
0.19877651 -0.11244274 0.031996008 0.49772704 0.18726021 0.11662754 0.31953123 -0.44850928
-0.8692196 0.09738812 -0.127443 -0.5837661 -0.23352519 -0.28618425 -0.42552367 0.3824246
-0.19232276 -0.11261503 -0.30189395 -0.13027805 0.09100959 0.25448066 -0.17412503 0.41137135
-0.57717395 -0.2176467 -0.44144118 -0.19469701 -0.2568993 -0.2493611 0.029113665 -0.020223228
-0.37775445 0.02184371 -0.43016806 0.64991695 0.13311096 0.22046255 0.2731131 0.18445721
0.50432426 -0.20358191 -0.49729678 0.3467529 0.39261404 0.65345204 -0.25700843 -0.05828116
-0.17313626 -0.1711076 -0.00843997 -0.30297717 0.2877072 -0.30466783 -0.23532994 0.0501746

model_1/genre_embedding/embedding_lookup f4 [10, 64]
00000000: 2a93 0ebf 0845 48bf 064f 3b3f 261f 4a3f
00000010: 23c7 973f b372 1e3f 1001 d03d 5c1b bd3e
00000020: ac2e 1a3f 7033 2dbf 17c0 593f c40b 873d
00000030: ccca 84be 991f 03bc a412 a23e 8ac0 aa3e
00000040: 222e 8c3f f6e9 263f 387a 22bf 3bec 2bbe
00000050: b049 d1be ca57 e7be e3e5 07bf 04c2 31be
00000060: 754a a5be 9769 c23e 6124 2fbf 08ca 3f3f
00000070: f9ad 46bf ee08 57be 8e09 53be cdf2 673f
00000080: ddd9 1abf 35a4 babe a3f9 4ebf b21d fbbe
00000090: 1264 a73d bf97 31bf f54f 16bf 9976 6fbf
000000a0: c9b8 2dbf 64a8 753d f12b c5bd 4061 1f3f
000000b0: 03b0 343f 820d 1b3f c969 8d3e 46ce 0a3e
000000c0: 02d7 7cbe 6979 42bf d5fb 7fbe cdac 46bf
000000d0: e309 7a3d 6be2 833f fb16 36bf cc43 9dbe
000000e0: c20a 0cbf 99c1 2abf 9373 723e 900d 0dbf
000000f0: 52f6 b03f 5baf 17bf 13ee a2be d54a 833f
00000100: ff1a 6abe 0c35 4fbf 7480 8e3e 5aec a13f
00000110: 2a3a a8be 8de8 353f d353 7c3f da93 0e3f
00000120: 6ba0 483f 179e f7be 9130 85be b975 3f3f
00000130: c2e2 a6bf 5ffc cfbe dc00 663e 217b 77bf
00000140: 25ea 6fbf 50c1 d23e ae36 bcbe 0eb6 43bf
00000150: d1b5 13bf dc83 1ebf 26f3 39bf e84d 483f
00000160: acbb 0cbf ad81 9f3e 7f07 4ebe 41bc 803e
00000170: f316 76be 9c07 383f 22d7 0ebf 129b 633f
00000180: 93fa 24bf 94f6 30bf d14a 2ebf 19b2 25bf
00000190: f3d1 57be a486 7ebe 6e6b 12bf 30aa a6be
000001a0: 6dc4 403e 6832 943e 5658 4d3f 3aa2 5c3f
000001b0: c04e fabc 3704 003f 309d 323f faf9 b13e
000001c0: 1595 873f 4252 00bf 172e 39bf 742d 6bbe
000001d0: 7790 343f 25af 563f 79c3 8abf f1b5 20bf
000001e0: 42b3 3bbf 90c6 bfbe 193a a8bf f69c 00bf
000001f0: 92b6 9d3e a49d 28bf 759c 12bf c201 87bf
00000200: 7dc7 e2be ba6e 3abf 041e 4d3f 178f 743f
00000210: 52bc 16be 42e3 893e e922 973f bcd0 b43e
00000220: df95 1d3f 687c cfbe 5864 093f c68f 913e
00000230: 5491 e8bf 3825 1a3f 04b9 063f 3276 a6be
00000240: 12eb 23bf 9e13 023f 4600 c8be a68a 743e
00000250: f86c 00bf c376 50be 0c1c 023e b8d2 063f
00000260: b057 1fbf adfc 183f d170 a0be c14e 80bf
00000270: a392 5b3f ca5f 673f 66c3 1abf 6707 e7be
00000280: 776c 4a3f a1ef ccbe ab6b 423d c41b ffbe
00000290: 596d 29bf a3c8 89be 21bc 36bf 835b cebe
000002a0: 8a1d d4be 0eaa 2b3f 8606 6a3f 7802 76bf
000002b0: cd12 9a3e dbb0 ce3e b39b 623e 0f86 ff3e
000002c0: b352 903f 2750 1fbf 9515 263d 38c4 31bf
000002d0: c497 0c3f 781f ca3d 27f0 863e 2ab3 29bf
000002e0: 00db d1be 1506 05bf 0f0c 7c3f 458e a9be
000002f0: 2012 953f f4c4 99be d763 35be 242d 2d3f
00000300: 090f f9be bedc 50bf 8fad 723f e08d ddbf
00000310: 9145 703f b49b 103f cd6a ebbe bff4 26be
00000320: 3d8a f13e cf9f 26bf 8a58 1a3f 8353 bb3e
00000330: 4650 12bf 879d 383f e4e6 173f f327 42be
00000340: 50ae c8be 1a02 003f 4e24 0ebf 2177 b6be
00000350: 1341 0cbf ec63 f6be 3f00 b9be 8be9 0a3f
00000360: 1b43 f2be b2db 1bbe d3a6 b8be f893 8cbf
00000370: fd6f e03e 04a5 213f f4f3 b3be 40c8 fa3e
00000380: 7772 c5be 63d9 dcbe dad4 35bf 8ee3 05bf
00000390: 7b7e d2be 5798 e5be 68f3 1ebf 6178 f2bd
000003a0: a799 56bf 0e21 133f f6e1 05bf e507 133f
000003b0: 6ea4 bebe a230 8ebe 449e 863e 221c 773e
000003c0: 29e9 923f 57c8 7dbe a9e6 2b3e 2760 29be
000003d0: bf8d 2c3f 5959 ab3f 5354 2f3f 1f7b a8be
000003e0: a10b 11bf 8c46 37bf 5f38 35bf 6c03 ffbe
000003f0: e342 97bf dad1 02bf 6dc0 dcbe 96d0 20bf
-0.55693305 -0.78230333 0.73167455 0.7895378 1.1857647 0.6189377 0.10156453 0.36934936
0.60227466 -0.6765661 0.8505873 0.06594041 -0.25935972 -0.008003139 0.31654847 0.3335002
1.0951579 0.65200746 -0.6346774 -0.16789334 -0.40876532 -0.45184165 -0.53085154 -0.17359167
-0.3228337 0.37971184 -0.68414885 0.7491765 -0.7760921 -0.209995 -0.20609114 0.9060486
-0.60488683 -0.36453405 -0.80849665 -0.49046093 0.08173384 -0.6937217 -0.58715755 -0.9354034
-0.67860085 0.059975043 -0.09627522 0.62257767 0.7058107 0.60567486 0.2761977 0.1355525
-0.24691394 -0.7596651 -0.2499841 -0.77607423 0.061044585 1.0303472 -0.71128815 -0.30715787
-0.54703915 -0.66701657 0.236769 -0.5509882 1.3825171 -0.59251946 -0.3182226 1.0257212
-0.2286186 -0.8094032 0.27832377 1.2650254 -0.32856876 0.7105797 0.98565406 0.55694354
0.7836978 -0.483628 -0.26013616 0.74789006 -1.3037951 -0.4062223 0.22461265 -0.96672255
-0.9371665 0.4116311 -0.36760467 -0.7644967 -0.57699305 -0.6191995 -0.7263664 0.78243876
-0.54973865 0.31153622 -0.20120047 0.25143626 -0.24032192 0.7188661 -0.55797017 0.88908494
-0.64444846 -0.6912625 -0.6808291 -0.6472488 -0.21076183 -0.24856049 -0.57195175 -0.32551718
0.1882493 0.28944707 0.80212915 0.8618504 -0.030555129 0.5000643 0.697711 0.3476103
1.0592371 -0.50125515 -0.7233595 -0.22966558 0.70532936 0.83861 -1.0840904 -0.6277762
-0.733204 -0.3745618 -1.314273 -0.50239503 0.30803353 -0.6586554 -0.57269984 -1.0547411
-0.44292822 -0.72825205 0.80123925 0.9553084 -0.14720276 0.26931196 1.1807529 0.35315502
0.6155681 -0.40524602 0.5366874 0.28430003 -1.8169351 0.6021304 0.5262606 -0.3251205
-0.64030564 0.50811183 -0.3906271 0.23881015 -0.50166273 -0.20357804 0.12706012 0.5266528
-0.62243176 0.5976055 -0.31336072 -1.0024034 0.85770625 0.9038054 -0.60454404 -0.45122835
0.79071754 -0.40026572 0.04746596 -0.4982587 -0.66182476 -0.26910886 -0.7138081 -0.40304193
-0.41428787 0.6705636 0.91416204 -0.96097517 0.3009247 0.40369305 0.22129707 0.49906966
1.1275238 -0.6223168 0.040547926 -0.6944003 0.54919076 0.098692834 0.26355097 -0.6628901
-0.40987396 -0.51962405 0.984559 -0.33116356 1.1646156 -0.30033076 -0.17713867 0.67647004
-0.48644283 -0.81586826 0.9479608 -1.7308922 0.9385615 0.56487584 -0.4597992 -0.163043
0.4717578 -0.650876 0.6029135 0.36587152 -0.5715374 0.7211537 0.59336686 -0.18960552
-0.3919549 0.50003207 -0.55524147 -0.35637763 -0.54786795 -0.4812311 -0.36133 0.5426261
-0.47316822 -0.15220526 -0.36064777 -1.0982656 0.4383544 0.6314242 -0.3514706 0.48980904
-0.38563892 -0.43134603 -0.7102791 -0.52300346 -0.41112122 -0.4484279 -0.6209016 -0.11839367
-0.83828205 0.5747231 -0.52297914 0.5743392 -0.37234825 -0.2777148 0.26292622 0.24131826
1.1477405 -0.24783455 0.16787209 -0.16540585 0.6740379 1.3386642 0.68488044 -0.32906434
-0.5665837 -0.7159202 -0.7078914 -0.49807298 -1.1817287 -0.5110146 -0.4311556 -0.62818277
